ML_Engineer/Img2Img/checkpoints/custom_kernel.best.pt (torch, 1191 bytes, 1 tensors)

conv_layer.weight f4 [1, 1, 5, 5]
00000000: c651 a83c 6314 bd3b eccc 9f3d 0f1b 803b
00000010: ef24 dc3c aedb 523d 37b9 923d 7ba4 933d
00000020: 9d46 f33d 8775 473c b2cf ab3c 152a 033e
00000030: 6f39 273e cc1e b93d 5818 363d eb85 263c
00000040: 4d00 d53d dda6 d13d e94b 943d 7c53 203d
00000050: 8a2b 1e3d b2bd fc3b 418a 2b3d 599f 263d
00000060: b437 393c
0.020546805 0.0057702526 0.078027576 0.0039094756 0.02687308 0.051479034 0.07164233 0.072091065
0.11878703 0.012174017 0.02097306 0.12809022 0.16330503 0.09039077 0.04445681 0.0101637645
0.10400448 0.10236905 0.07241041 0.039142117 0.03861574 0.007713043 0.041879896 0.04067931
0.011304785
