ML_Engineer/Img2Img/checkpoints/sobel_double_kernel.best.pt (torch, 1191 bytes, 2 tensors)

conv_layer.weight f4 [2, 1, 3, 3]
0	0x3f42850d	0.7598427
1	0x3ffbac55	1.9661967
2	0x3f9812aa	1.1880696
3	0xbeda47df	-0.42632958
4	0xba43e7c9	-0.00074731983
5	0x3edf2276	0.4358098
6	0xbf982418	-1.1886015
7	0xbff93fd7	-1.9472607
8	0xbf438ca3	-0.7638647
9	0xbf989488	-1.1920328
10	0xbedcd525	-0.43131366
11	0x3f43c31e	0.764696
12	0xbff9ebf9	-1.9525138
13	0x3b09b3da	0.002101174
14	0x3ff8ae01	1.9428102
15	0xbf42f5d6	-0.76156366
16	0x3edb5cb4	0.42844164
17	0x3f999fa3	1.2001842

conv_layer.bias f4 [2]
0	0xbe10ad3e	-0.14128587
1	0x3dd6d0f9	0.10489077
